…
0,"user_tz":-60,"elapsed":392,"user":{"displayName":"Huzaifa Ahmad","photoUrl":"https://lh3.googleusercontent.com/a-/AOh14GjLYtmrg9ffTuIoG7yviU5wA27X_NroIWVZbOUj=s64","userId":"08238025780309927389"}},"outputId":"224fccfd-4634-4eac-8465-6b48c33c43f3"},"execution_count":45,"outputs":[{"output_type":"stream","name":"stdout","text":["Model: \"sequential_7\"\n","_________________________________________________________________\n"," Layer (type)                Output Shape              Param #   \n","=================================================================\n"," conv2d_10 (Conv2D)          (None, 30, 30, 256)       7168      \n","                                                                 \n"," max_pooling2d_9 (MaxPooling  (None, 15, 15, 256)      0         \n"," 2D)                                                             \n","                                                                 \n"," dropout_6 (Dropout)         (None, 15, 15, 256)       0         \n","                                                                 \n"," conv2d_11 (Conv2D)          (None, 13, 13, 128)       295040    \n","                                                                 \n"," max_pooling2d_10 (MaxPoolin  (None, 6, 6, 128)        0         \n"," g2D)                                                            \n","                                                                 \n"," dropout_7 (Dropout)         (None, 6, 6, 128)         0         \n","                                                                 \n"," conv2d_12 (Conv2D)          (None, 4, 4, 64)          73792     \n","                                                                 \n"," max_pooling2d_11 (MaxPoolin  (None, 2, 2, 64)         0         \n"," g2D)                                                            \n","                                                                 \n"," dropout_8 (Dropout)         (None, 2, 2, 64)          0         \n","                                                                 \n"," flatten_2 (Flatten)         (None, 256)               0         \n","                                                                 \n"," dense (Dense)               (None, 32)                8224      \n","                                                                 \n"," dense_1 (Dense)             (None, 7)                 231       \n","                                                                 \n","=================================================================\n","Total params: 384,455\n","Trainable params: 384,455\n","Non-trainable params: 0\n","_________________________________________________________________\n"]}]},{"cell_type":"code","source":["model.compile(optimizer='Adam',loss='categorical_crossentrop
…
